backend/models_radiomics/best_model.pth (torch, 623669 bytes, 45 tensors)

network.0.weight f4 [256, 30]
00000000: dd69 813c 97e1 1abd b4a7 0b3e b4e1 76bd
00000010: db1d 0f3e 7f16 2ebe 7d8d 3abe c38f 5ebd
00000020: bb71 ce3d aece 84bd 5176 bb3c 4ca5 76bd
00000030: 7ac4 143d c7e1 183d 8297 1e3e 2bbb 193d
00000040: 8b1c 2c3d 4ef4 953d 9139 113e 5826 443d
00000050: 2f67 393d 5536 e7bc 8bcf 4f3d 2247 773d
00000060: aed9 9f3b 628e bc3c 6294 2d3c 22cc 99bd
00000070: 1cf8 163d 2e04 0e3d 588d 273e 5900 87bd
00000080: ee5d f8bd c8b1 37bd f022 05be c4ef bfbd
00000090: 9dc3 4f3d 76a9 b7bc ba3c 7cbd 87eb 1abd
000000a0: e746 16be 931c 6dbc 9543 0f3e 50cc d63d
000000b0: 497e cf3b 5b2a 07be f4cd 2fbe 9be6 92bc
000000c0: 5bc9 3e3d 93fe 433c eb56 0fbe 3277 e9bd
000000d0: 85b4 8dbd af3d ea3d d0ba 0bbd ff28 b2bd
000000e0: 753b 213c d016 2dbe b77e 213e 2983 163e
000000f0: e2f9 893d 4e6b 93bd 214d 56bd c648 a83d
00000100: 4812 063e 4ad0 c83d ba62 0f3e 0386 c13d
00000110: 95fa 273e 4e0d 91bd 4241 923d 42d9 0fbe
00000120: a00d 31bc fa44 da3d a8af 4ebd 30b1 afbd
00000130: bcbf 343e 8e36 91bc 9079 cbbd 2825 66bd
00000140: e74a 153d 2500 57bd 6bc7 093e fe73 39bd
00000150: d2ea 923c e42e 243d 1cea a93d 57bb a4bb
00000160: e543 03be 9703 3b3e 9ba0 05be 8040 773c
00000170: 8c37 0ebe c868 8cbc 1834 9cbd 5d6c 163e
00000180: d710 073e d432 14bd 3fa3 493c 40fb 32be
00000190: ea5c cc3d 71c3 beb8 ccb6 0f3e 8af7 c43d
000001a0: 953a 1abe cf4e 253e b840 2f3e 4a5c 173e
000001b0: 8c55 5dbc 26af 23be a116 b8bc 90bf b43c
000001c0: f1ae bfbd 94e6 5f3d ed91 2bbe 86b6 1d3d
000001d0: a563 053e f69c 193e a8f4 22be 37da 1f3e
000001e0: 02aa d33d 1d35 febd dae8 8d3d 4bd4 823d
000001f0: 0474 6dbc 389f 36bd 6a7e 2bbd 05f4 0b3e
00000200: b707 abbb 7180 9abd cd1a 53bc 71f5 1ebd
00000210: 70df d8bd 2246 ee3c c94c 32be 3c2d 4d3d
00000220: b696 383e fb3e 883d 8bfb 36be f7d3 80bc
00000230: 5df1 153e 11a7 f83d 70ae 54bd 9b4d e9bc
00000240: 230d abbd d3fc b7bd 6a07 2f3e ead1 f33d
00000250: 67f9 a8bd b734 053d 2592 333d 387c afbd
00000260: 193d cdbd ea20 46bc 82bd 60bd c95b 363e
00000270: f05a 113d cde0 163e 039a 853d d608 cabd
00000280: a53e 0b3d 925c b83c 8e12 cfbd 62a5 ee3c
00000290: d592 193e 99f0 aebc 8ad4 47bc d6a0 0ebe
000002a0: 2943 a5bd e164 323c 9493 a8bd 69ca 82bc
000002b0: 3b0d 63bd b364 d3bd ee60 84bd 36e8 5f3c
000002c0: e8a1 213e 0a75 50bd ad88 33be ecac 3fbc
000002d0: f98d 163e d328 bfbd 8457 bdbb 18c7 a83d
000002e0: 7040 a73c eaa3 07be 6912 55bd be54 963d
000002f0: 6057 96bd b824 d3bd 3ea4 ea3d 4492 ad3d
00000300: 0828 a63c 0445 d3bd f180 4dbc e473 09bd
00000310: e1bd 0a3e c8db 37bd a1b6 5b3d a6c9 3a3b
00000320: 07a9 17be 8ba1 d43d 5b67 363e ce15 2fbe
00000330: 0e4c 1f3e 7a00 033e a377 533d e440 123e
00000340: 5c81 ea3d 504a 8cbb 85fa 9d3d 2779 e53c
00000350: 2c59 00be 34cd cabd 7b39 bfbc b570 153e
00000360: 43b5 1e3d 7e5f dbbd 2020 05be ab8b 29be
00000370: d174 af3d d7e5 173e 5598 edbc f3b4 053c
00000380: 782c fcbd b1f5 b23d 4548 f83d 522f d53c
00000390: 895a 31be 1326 4ebd 1def f6bd 1652 dd3d
000003a0: 077e d03d 631c 5abc 1038 b7bb 999f 97bd
000003b0: b376 2bbe 205b b43d 2266 31be 3af6 b43a
000003c0: 54c3 393e 5652 1d3d d78d 4abd c4c4 c13d
000003d0: 906e 103e 65d5 4d3d e835 66bd f703 abbc
000003e0: 1c50 94bd 84a0 ac3d 290d 6c3d b6d8 28bc
000003f0: 769c b83d 8f56 36be ec62 623d 964a 5f3d
0.01579755 -0.037812795 0.13638192 -0.06027384 0.13976233 -0.17000769 -0.18218036 -0.05433632
0.10080286 -0.064847335 0.022883566 -0.060216233 0.036320187 0.037324693 0.15487483 0.037532013
0.04201941 0.07321988 0.14182116 0.04788813 0.04526442 -0.02822415 0.050735038 0.060370572
0.0048782444 0.023017112 0.010594459 -0.07509638 0.03685771 0.034671955 0.16362512 -0.06591863
-0.12127291 -0.04484728 -0.13001609 -0.093719035 0.05072366 -0.022419672 -0.06158135 -0.037822273
-0.14675485 -0.014472145 0.13990624 0.10488188 0.006332193 -0.13199751 -0.17168409 -0.017932227
0.046578746 0.011962551 -0.13998 -0.11399688 -0.06919197 0.114375465 -0.034113705 -0.08699226
0.009840836 -0.16903234 0.15770994 0.14698471 0.067371145 -0.07198201 -0.05231965 0.082170054
0.13092911 0.09805353 0.14002505 0.09449389 0.16404183 -0.07082616 0.07141353 -0.14047721
-0.010806471 0.106576875 -0.050460488 -0.08578718 0.17651266 -0.017726209 -0.099352956 -0.05618778
0.036448386 -0.052490372 0.13454978 -0.045276634 0.017934237 0.04008378 0.08296606 -0.0050272155
-0.12818868 0.18263088 -0.13049547 0.015091062 -0.13888377 -0.017139807 -0.076271236 0.14689775
0.13190018 -0.036181286 0.012306987 -0.17478657 0.099786595 -9.09631e-05 0.14034575 0.09617527
-0.1506141 0.16143344 0.17114532 0.14781299 -0.0135091655 -0.15984783 -0.022471728 0.022064
-0.09359539 0.054663256 -0.16754885 0.038504146 0.13026293 0.15001282 -0.15913641 0.15610586
0.10335161 -0.12412474 0.069291785 0.06388148 -0.014492992 -0.044585437 -0.041868605 0.13667305
-0.0052194255 -0.075440295 -0.012884808 -0.03880829 -0.10589492 0.029086176 -0.17412104 0.050091967
0.18026242 0.066526376 -0.17869394 -0.015726073 0.14642854 0.121412404 -0.05192417 -0.028479388
-0.08352115 -0.08983769 0.17092672 0.11905272 -0.08250695 0.032520976 0.043840546 -0.08568615
-0.10021419 -0.012092808 -0.05486823 0.17808451 0.035487115 0.14734192 0.06523516 -0.098649666
0.03399529 0.022505078 -0.10110961 0.029131595 0.14997418 -0.02135496 -0.012196669 -0.13928542
-0.080694504 0.010888309 -0.08231273 -0.015965657 -0.05543254 -0.10321941 -0.064638 0.013666203
0.15784419 -0.050892867 -0.17532606 -0.011698943 0.14702596 -0.093339585 -0.005778255 0.08241099
0.020416468 -0.13246122 -0.05201951 0.07340382 -0.07340884 -0.10309738 0.11457108 0.084751636
0.02028276 -0.10315898 -0.012542949 -0.033557788 0.13548996 -0.044887334 0.053640965 0.002850154
-0.14810573 0.103823744 0.17812864 -0.17098162 0.15556356 0.1279315 0.051627766 0.14282566
0.114504546 -0.0042813197 0.077137984 0.028011872 -0.12534016 -0.09902421 -0.023342839 0.14593776
0.038747083 -0.10711573 -0.13000536 -0.16557185 0.08567203 0.1483377 -0.029003302 0.008160817
-0.12313169 0.08738268 0.12123159 0.02602354 -0.17319693 -0.05032928 -0.12057326 0.10806672
0.10180288 -0.013312432 -0.0055914 -0.07403488 -0.16744499 0.08806443 -0.17324117 0.0013806291
0.18140918 0.0384086 -0.049451675 0.09461358 0.14104676 0.050252337 -0.056203753 -0.020875914
-0.07241842 0.084290534 0.057629738 -0.010305574 0.090142176 -0.17806457 0.05527012 0.05451449

network.0.bias f4 [256]
00000000: 781e 243e 9c5e 2cbe 3301 2c3e 886d 483d
00000010: 64ce 25be 0945 82bd ff94 a43c f5d9 223d
00000020: c9d3 b43d 02eb 5ebd 4ff8 6f3d e45b 17bd
00000030: 8377 1dbe 54e0 aa3d 942c 243e 11ec f33d
00000040: c478 ffbd 7241 80bd a052 e8bd 77c6 843d
00000050: 5189 e53d 9483 be3b 5f32 23bd f5ec 34be
00000060: 6cf7 063c 3ed0 c73c 77ef 13bd a602 bf3b
00000070: 1aa3 1f3e d302 88bd dcab 06be a024 babc
00000080: 3d44 3abe b84f 913d dd4c 8abc 0503 613d
00000090: 0792 e3bc 5bc5 0e3e c42f 37be 63df 8c3d
000000a0: 4e7a 313c 9540 e8bc 4cdc 253e ca78 04be
000000b0: ca7c 02bd 6762 243d 4ab3 0dbd 3fa3 d1bc
000000c0: 9d21 a8bd 4d96 cc3d 14a3 0fbe 7aa0 af3c
000000d0: e096 d4bc ca50 26bd f9a7 043d 4f6d a03d
000000e0: 44eb 213e ac9b bcbd 3f0e 5cbc 6d38 33be
000000f0: b56f 163e 3d5c 193e 6ee8 03bd a930 5cbc
00000100: 9274 ccbc 1893 1d3d 97e4 083e aa58 1c3e
00000110: 79cd 053e 0397 70bb ac51 0bbd a2c7 42bd
00000120: 1222 f33c be7e 2bbe 29cd b8bc 9fed 2fbe
00000130: 0665 0ebe f035 0b3e 242e 60bd aa2e 01be
00000140: 599a 1cbe 7c12 e13d 171c 1f3e 5725 043c
00000150: 2749 303e 6396 87bd 507c 36be d2e6 0fbe
00000160: 32e7 3ebd 5c60 163e ac18 d4bc 727c 12be
00000170: 9013 0f3c fcb3 9f3d 3277 c1bd 5708 bebb
00000180: 1df3 32be ed8b 4b3d f2d8 3f3d 386b 1e3e
00000190: 3290 d23d 3fc7 e63c d228 09be a228 acbd
000001a0: f284 e43b 6a2d 2e3e 6e01 0cbe 9d1a 0e3e
000001b0: 98a6 96bd 1cf8 2d3d aacd 2f3e 4e2e a63d
000001c0: 7751 aa3d b715 30bd 8658 9e3d ccf1 02be
000001d0: ca5f 123c 0af7 443c 2881 163e 873b d3ba
000001e0: 739a 353e 6292 a0bd 5321 753d bbeb eebd
000001f0: 602c 8dbd ac9b 8fbc 026b ccbd 5d50 00be
00000200: d7e3 02be af92 253c 7e32 a2bd bc2d 2b3e
00000210: 9803 dbbd 092d 0fbe eac0 a3bd d0b9 57bd
00000220: 26a7 fb3c 5ce6 2c3e 630d f7bd e24e 423d
00000230: 35f7 13be 4903 2d3e 5574 c2bd 7c28 f03d
00000240: 5148 21bc ed23 f53d d7c9 84ba 521c fd3d
00000250: bbad a9bd b534 27be 7ed2 0cbd 92bc b5bd
00000260: 6edd 11bc 8162 cbbd a477 97bd 7c10 11be
00000270: 5954 4cbd f7f8 d4bd ed21 fb3d 3cfe cdbd
00000280: 8623 133e e745 363e 7485 11be 95da ebbc
00000290: 6400 2a3e 6670 2dbe 9a2e 22be 681a febd
000002a0: fcfb 0cbe 1601 bc3d cc9f a23d 4ba0 713c
000002b0: 4f4f 2f3e e01d 0a3d 479a 543d 024f 023e
000002c0: 89f3 15bd 7791 e5bc 37b1 04be bb15 d53d
000002d0: ba4c 09be 103d d5bd e262 11be ed2a 49bd
000002e0: ce67 0fbe 7c7a 293d 222e 24be 7e12 1dbb
000002f0: 754f 03bc 9946 06be fad4 093e b51e e2bd
00000300: d6e0 0fbe 1f86 acbd 2d7a 94bd 84b1 0cbd
00000310: 0574 353d b5c9 c13d aa74 023e 86bb 9ebc
00000320: 7c7e 56bd b18a 0c3e 76f7 f53d 85a7 1f3e
00000330: 5f55 85bc b59a b7bc d5ed 283e 0cad 913d
00000340: 837d f4bd bfed 03bd 9c8e 013e 1fd2 1fbe
00000350: 5b27 5ebd 9303 103e 22af 4cbd 8f15 3abe
00000360: 7ef0 103d 1fa4 2a3e bf50 0abe ce8b 05bd
00000370: 0e06 c8bc dc8e ebbc 9d57 14be dac9 a73b
00000380: dce8 30bd c117 1abe c3e3 bfbd 425f fa3d
00000390: cd41 34be 0640 64bd 3531 07be ec94 333e
000003a0: 6374 21bd 464a 30bd 11b8 e83d 787e f43c
000003b0: 1425 3abe fe42 19be 4654 ab3d c0d7 8f3d
000003c0: 1ad5 22be 8202 073e d3bc f93d 7a93 463c
000003d0: ef84 b63d 08d9 d9bd 7c08 b2bc c4a4 c3bd
000003e0: bc0a f23c ece6 123e bf52 393e b4e6 853d
000003f0: 3f10 b0bd cf01 08be dd2a d23d 8d7f cd3d
0.16027248 -0.16832966 0.16797332 0.048932582 -0.16192013 -0.06360824 0.020090578 0.03975864
0.08829457 -0.05442334 0.058586415 -0.036952868 -0.15377621 0.083435684 0.1603263 0.119102605
-0.12474206 -0.06262483 -0.113438845 0.06483167 0.11207832 0.005814025 -0.03984296 -0.17668517
0.008237701 0.02439129 -0.036117043 0.005829173 0.15589562 -0.06641164 -0.13151497 -0.022722542
-0.18190093 0.07095283 -0.016882354 0.05493452 -0.027779592 0.13942473 -0.17889315 0.06878545
0.010832382 -0.028351108 0.16197318 -0.12936702 -0.03185729 0.040132906 -0.03459481 -0.025590537
-0.08209536 0.09989605 -0.14027053 0.021438826 -0.025950849 -0.04060439 0.032386754 0.07833349
0.15812403 -0.092093796 -0.013431131 -0.17501993 0.1469105 0.14976592 -0.032204084 -0.013439336
-0.024957929 0.038470358 0.1336845 0.15268198 0.13066663 -0.0036711104 -0.034013435 -0.047553666
0.029679332 -0.16747567 -0.022558765 -0.17180489 -0.13905725 0.13594794 -0.054731503 -0.12615457
-0.15293254 0.10989854 0.15538059 0.008065543 0.17215405 -0.06620481 -0.17820859 -0.14052895
-0.046607204 0.14685196 -0.02589067 -0.14305285 0.008732691 0.07798001 -0.09446563 -0.005799334
-0.17475553 0.04969399 0.046837755 0.15470588 0.10281409 0.02817118 -0.13394478 -0.084061876
0.006973856 0.17009512 -0.1367242 0.1387734 -0.07355994 0.042472944 0.17168298 0.08114301
0.083163194 -0.04298946 0.07731728 -0.1278755 0.008933971 0.012021789 0.14697707 -0.0016115763
0.17734699 -0.0784042 0.059846234 -0.11666056 -0.068932295 -0.017530285 -0.099813476 -0.12530656
-0.12782227 0.010105773 -0.07919787 0.16716665 -0.10694045 -0.13982023 -0.0799578 -0.05266744
0.030719351 0.1688475 -0.120631 0.04743851 -0.14449771 0.16895784 -0.09494845 0.11726472
-0.009843902 0.11969743 -0.0010130954 0.12358917 -0.082850896 -0.163287 -0.03438043 -0.088738576
-0.008902891 -0.099308975 -0.073958665 -0.14166445 -0.049885128 -0.10399049 0.1226233 -0.10058257
0.1436902 0.17800103 -0.14211065 -0.028790751 0.16601712 -0.16937408 -0.1583809 -0.1240738
-0.13768 0.091798946 0.07940635 0.0147476895 0.17120098 0.033719897 0.051904943 0.12725452
-0.036609206 -0.028023465 -0.12958227 0.104045354 -0.13408175 -0.104120374 -0.14197877 -0.049113203
-0.14004442 0.041376576 -0.16033223 -0.002396732 -0.0080145495 -0.13112868 0.1346015 -0.11041013
-0.14050612 -0.08424019 -0.07249866 -0.03434898 0.044300098 0.09462301 0.12739816 -0.019376528
-0.05236672 0.13724782 0.1201009 0.15591247 -0.01627606 -0.022412637 0.16496976 0.07113084
-0.11938002 -0.032209154 0.12652057 -0.15607499 -0.05423675 0.14063863 -0.049971707 -0.18172286
0.0353856 0.1666417 -0.13507365 -0.03260403 -0.02441695 -0.028754644 -0.14486547 0.005120498
-0.043190822 -0.15048124 -0.09369614 0.122252 -0.17603226 -0.05572512 -0.13202365 0.17537278
-0.039417636 -0.043039583 0.11363233 0.029845461 -0.18178207 -0.14966962 0.08365683 0.07023573
-0.15901604 0.1318455 0.121942185 0.012120122 0.08912074 -0.106370986 -0.021732561 -0.09552911
0.029546134 0.14345902 0.18097971 0.06538144 -0.08596849 -0.1328194 0.10262082 0.10034094

network.1.weight f4 [256]
00000000: 844f 7f3f 035c 7f3f 3b0e 803f 1bf4 7f3f
00000010: 9c4f 7f3f f062 7f3f 2b3c 7f3f 3ff2 7f3f
00000020: 05db 7f3f 960e 803f 7d55 7f3f b65d 803f
00000030: 850a 803f 6dc2 7f3f c854 803f 8060 803f
00000040: d151 803f 46bd 7f3f dc3e 7f3f 9e4c 7f3f
00000050: c74b 7f3f d4f2 7f3f e244 803f 7d05 803f
00000060: 908c 7f3f 8694 7f3f ab94 7f3f 775c 803f
00000070: 7b53 7f3f 483d 803f 3711 803f 7c46 7f3f
00000080: 0a8a 7f3f ef4d 7f3f e3e0 7f3f 17de 7f3f
00000090: f8b7 7f3f 28cd 7f3f b161 803f 3843 7f3f
000000a0: ad3e 7f3f 7e44 803f 693e 7f3f c9b8 7f3f
000000b0: 82f0 7f3f e231 803f 5213 803f 6e3d 803f
000000c0: b951 803f c961 803f 487a 7f3f 8848 7f3f
000000d0: 0c96 7f3f 9953 7f3f 4908 803f d820 803f
000000e0: 9e30 803f 7197 7f3f 1f2c 803f b248 7f3f
000000f0: 8693 7f3f 7717 803f b159 803f 9c57 803f
00000100: 4c1f 803f f45c 803f 314a 803f 9857 803f
00000110: 51dd 7f3f 7450 803f 382b 803f d220 803f
00000120: a74a 803f 3b92 7f3f 2e4f 7f3f db3b 7f3f
00000130: f2bf 7f3f 73e7 7f3f 0a1f 803f 8bc8 7f3f
00000140: e33c 803f 0a50 803f 84a9 7f3f ef82 7f3f
00000150: bc50 7f3f a851 803f ea3f 803f ab34 803f
00000160: b13b 803f 2650 803f ac3b 7f3f 0af7 7f3f
00000170: d476 7f3f c2ac 7f3f 0730 803f 860d 803f
00000180: 713f 7f3f bf5c 7f3f 566e 7f3f 9a01 803f
00000190: 6baf 7f3f f2be 7f3f 1e5a 803f 91df 7f3f
000001a0: 1736 803f 9349 803f 2a54 803f 635a 803f
000001b0: b932 803f 67fc 7f3f 10c4 7f3f c768 7f3f
000001c0: 072e 803f 83a9 7f3f b14f 803f bb5f 7f3f
000001d0: d68a 7f3f 104a 803f 1392 7f3f 6bdd 7f3f
000001e0: 90f3 7f3f 2f03 803f bda2 7f3f f057 803f
000001f0: e95c 803f f154 7f3f e308 803f cc57 7f3f
00000200: 8029 803f d4a1 7f3f 7c61 7f3f 1e5d 803f
00000210: 6256 7f3f 9ba7 7f3f 5a5a 803f a03d 7f3f
00000220: 0e49 803f 98d9 7f3f b1bd 7f3f ed55 7f3f
00000230: 0258 7f3f 874e 803f cb59 803f 2316 803f
00000240: f80c 803f c90f 803f 4ffa 7f3f cc4a 803f
00000250: d64f 7f3f 70ee 7f3f 7cc3 7f3f 6ae2 7f3f
00000260: bee3 7f3f 2551 7f3f e9f0 7f3f ee51 803f
00000270: 32ba 7f3f 444c 7f3f ab5f 803f ec4b 7f3f
00000280: 509d 7f3f 2a5c 7f3f 400a 803f 2a79 7f3f
00000290: 7341 803f 88a9 7f3f 670c 803f cb50 803f
000002a0: cc1a 803f 8620 803f 6fec 7f3f 7b59 803f
000002b0: fe57 803f 7706 803f 16cc 7f3f 3807 803f
000002c0: 043d 803f a6bd 7f3f f11b 803f 65e9 7f3f
000002d0: 6d98 7f3f 2b1a 803f e897 7f3f 8d59 803f
000002e0: cba7 7f3f 31c7 7f3f 9c23 803f 4533 803f
000002f0: b5d2 7f3f 6ab9 7f3f 9003 803f 6313 803f
00000300: bc90 7f3f fc6d 7f3f 415c 803f e937 803f
00000310: d557 803f 8d53 803f 3647 803f 6c5d 803f
00000320: a155 803f 664a 7f3f 4964 7f3f 2047 803f
00000330: ad52 7f3f 31f0 7f3f 7949 7f3f 794e 803f
00000340: d852 803f 3bc7 7f3f e130 803f 45f4 7f3f
00000350: eac1 7f3f 1951 7f3f 2756 7f3f 8dac 7f3f
00000360: 5d4e 7f3f 8fc8 7f3f 574b 803f e85a 803f
00000370: 5585 7f3f 8c9b 7f3f 69ee 7f3f bb4d 7f3f
00000380: 635a 803f ed5a 803f 5a35 803f d020 803f
00000390: 4d4f 803f 6655 7f3f 288c 7f3f 396f 7f3f
000003a0: 1c2f 803f 90fd 7f3f 6af5 7f3f b341 803f
000003b0: 0556 803f e443 7f3f e296 7f3f 74b6 7f3f
000003c0: d959 803f 432d 803f 6844 803f d652 803f
000003d0: 0a42 803f 40e1 7f3f 3459 803f 6562 7f3f
000003e0: e196 7f3f f15f 7f3f 696e 7f3f 365c 7f3f
000003f0: 4fb3 7f3f 2b26 803f fc41 803f 96ee 7f3f
0.99730706 0.99749774 1.0004343 0.9998185 0.9973085 0.9976034 0.99701184 0.99979013
0.9994357 1.0004451 0.9973982 1.0028598 1.000321 0.99906045 1.0025873 1.002945
1.0024968 0.99898183 0.9970529 0.99726284 0.99725 0.999799 1.0021021 1.0001675
0.99823856 0.99836004 0.99836224 1.0028218 0.99736756 1.0018702 1.0005254 0.99716926
0.99820006 0.9972829 0.99952525 0.9994826 0.9989009 0.9992242 1.0029813 0.9971194
0.9970501 1.0020902 0.99704605 0.99891335 0.9997636 1.0015223 1.0005896 1.0018747
1.002494 1.0029842 0.9979596 0.9972005 0.9983833 0.99736935 1.0002528 1.0010023
1.0014837 0.99840456 1.0013465 0.997203 0.9983448 1.0007161 1.0027372 1.0026736
1.0009551 1.0028367 1.0022641 1.0026731 0.9994708 1.0024552 1.0013189 1.0010016
1.0022782 0.99832505 0.99730194 0.9970071 0.9990226 0.9996254 1.0009472 0.9991538
1.0018581 1.0024426 0.99868035 0.99809164 0.99732566 1.002492 1.0019505 1.0016073
1.0018216 1.0024459 0.9970043 0.99986327 0.9979069 0.9987298 1.0014657 1.0004127
0.9970618 0.99750894 0.99777734 1.0000489 0.9987704 0.99900734 1.0027502 0.9995051
1.0016507 1.0022453 1.0025685 1.0027584 1.0015479 0.9999451 0.9990854 0.9976925
1.0014046 0.9986803 1.002432 0.9975545 0.9982122 1.0022602 0.99832267 0.9994723
0.9998102 1.0000972 0.99857694 1.0026836 1.0028354 0.99738985 1.0002712 0.9974334
1.0012665 0.99856305 0.99758124 1.0028417 0.99741185 0.9986512 1.0027573 0.9970341
1.0022295 0.99941397 0.9989882 0.9974049 0.99743664 1.0023965 1.0027403 1.0006756
1.0003958 1.0004817 0.99991316 1.0022826 0.99731195 0.999732 0.9990766 0.99954855
0.9995688 0.9973319 0.99976975 1.0025003 0.99893486 0.9972575 1.0029196 0.9972522
0.99849415 0.99750006 1.0003128 0.99794257 1.0019974 0.9986806 1.0003785 1.0024656
1.0008178 1.0009925 0.99970144 1.0027307 1.0026853 1.0001973 0.99920785 1.0002203
1.001862 0.99898756 1.0008527 0.99965507 0.9984196 1.0007986 0.99841166 1.0027329
0.99865407 0.99913317 1.0010867 1.0015646 0.9993089 0.99892294 1.0001087 1.0005916
0.9983022 0.997772 1.0028154 1.0017062 1.0026804 1.0025498 1.0021732 1.002851
1.0026132 0.997229 0.997624 1.0021706 0.9973553 0.9997588 0.99721485 1.0023948
1.0025282 0.99913377 1.0014917 0.999821 0.99905264 0.9973312 0.99740833 0.99872667
0.9972895 0.99915403 1.0022992 1.0027742 0.99812824 0.9984672 0.9997316 0.9972798
1.0027584 1.0027748 1.0016282 1.0010014 1.0024201 0.9973968 0.99823236 0.9977909
1.0014377 0.9999628 0.9998385 1.002005 1.0026251 0.9971297 0.99839604 0.99887776
1.0027419 1.0013813 1.0020876 1.002528 1.0020154 0.9995308 1.0027223 0.99759513
0.998396 0.9975577 0.9977785 0.9975008 0.9988298 1.0011648 1.0020137 0.9997343

network.1.bias f4 [256]
00000000: 710f 42bb 8817 25bb e6ef be3a 0080 0134
00000010: 2efa f239 c5fc 20bb 9133 43bb 687b 62ba
00000020: 4cb4 e0ba 7ce1 d9b9 2751 30bb 27bb 263b
00000030: c4c9 f039 399c bbba 7cf1 303b a8fe de38
00000040: 8e56 283b d413 abba c111 39bb baf7 30bb
00000050: ff36 2fbb 7951 3fbb b28e 113b c0b8 d03a
00000060: ff2e f1ba 0cf5 fdba 0c27 f7ba 9d2b 3e3b
00000070: f645 22bb 7c6b 143b cf71 fa39 8080 35bb
00000080: 7c80 f3ba 2a0b 3bbb eb45 a4b9 2461 29ba
00000090: acb9 a4ba 7884 beb8 3d50 403b 5f9e 3fbb
000000a0: 09b5 39bb 6d3e 0e3b cc15 40bb 82e7 2bba
000000b0: d5c5 a9b9 ccf2 323b 542e d1ba 3aac fc3a
000000c0: 04d8 213b b250 423b 8637 1cbb 2041 32bb
000000d0: ccaf 103a 661f 39bb 74e5 7d39 ce20 b53a
000000e0: 2611 e53a 6e6e d1ba caec bc3a 2ce2 3ebb
000000f0: a8e4 e6ba bd8c 6d3a 66a4 c33a 442b 353b
00000100: adb3 9b3a 182a 3d3b cd6d d43a eca4 3d3b
00000110: 5493 2ebb 0f1b 153b 10ee ac3a 9c60 c13a
00000120: 85f3 1a3b d64c 9b3a a83a 30bb efd6 3ebb
00000130: c2b7 cfba 0d88 2bbb ce26 633a 8a87 5aba
00000140: ae86 ea3a 78ae 353b 20ed acba 8c8d 93ba
00000150: 9617 27bb 9a83 213b 46b0 093b 84ba b03a
00000160: b6d9 0c3b 4169 a339 f1b3 36bb 4093 5d37
00000170: 8e14 1cbb d620 e0ba 4040 c03a d0f8 0538
00000180: 138b 33bb effb 9c3a 1efb daba 72a5 bf39
00000190: f64d a7ba c1e1 0eba 4c35 343b 4e90 37bb
000001a0: 8239 143b b84e 203b f2e1 b93a 69ff 313b
000001b0: b09e 6438 8fb8 633a 64bd 1db9 42c9 21bb
000001c0: b996 da3a aaed acba 0808 443b 8cd0 24bb
000001d0: d25a c2ba 1490 6b3a f222 04bb 3f9d 33ba
000001e0: 9c64 e139 8ebd 9a39 18fe f4ba 15ed 323b
000001f0: 1c83 2d3b 3203 2fbb e332 e639 6afc 2cbb
00000200: d4ef 9e39 e234 f2ba 0060 23bb bf1b 263b
00000210: 359a 24bb 3bdd b1ba 0e3f 423b d620 43bb
00000220: 13ba 203b 5c1e 0dba 2feb 88ba c764 d5b9
00000230: 5dbf 1abb ef01 133b e563 2c3b 0ade 9d3a
00000240: 5030 393b 56fd 303b 218c 19bb 36f8 163b
00000250: 8e46 27bb 4cdc 05b9 a337 93ba 4c83 4eba
00000260: 59e5 6cb9 45ba 36bb 488f 7cb9 3b4b 343b
00000270: f897 03ba bfc5 39bb 7eaa 423b e8b1 1fbb
00000280: bc05 feba 8703 233a 5ddf a439 a8af 12bb
00000290: d122 0a3b 32ed acba 2ebc 013a f058 263b
000002a0: e2ea c23a 3a0f 113a 6a74 26bb 9865 313b
000002b0: b476 163b 612a 8a3a 5e00 1dba d021 48b8
000002c0: ecfa e93a 195a c2ba f67a caba 5c95 a1b8
000002d0: 1049 eeb9 d50e 8f3a da40 ceba 54ea 2a3b
000002e0: 5e49 d6ba 4b3e 82ba efdb af3a be20 d83a
000002f0: 8808 fab9 b055 9338 30ea 1db8 2e80 f239
00000300: 8195 1abb e2fb 08bb 54fa 3c3b d768 d93a
00000310: bbeb 2f3b 4ac0 343b e5cd 243b 7596 403b
00000320: 799e 2b3b a343 33bb 703e 0bbb e6f1 0f3b
00000330: 9e8e 30bb 39dc 00ba b115 40bb 10e0 223b
00000340: 5b92 303b 467a 8eba ebfa 173b 4627 1d3b
00000350: 494f 97ba 3968 28bb d0b5 35bb c964 cbba
00000360: f40d 2fbb e67e 71ba faf5 003b 7424 373b
00000370: 7062 e1ba c963 43bb f215 58ba cf99 f5b9
00000380: bde1 2e3b 5580 353b 37fb e73a aafd 9e3a
00000390: af01 093b 794e 36bb 7018 b1ba 2430 14bb
000003a0: 1f92 953a d01d 3538 e014 6b38 e4ee 19ba
000003b0: 7de7 323b e9e5 34bb f82e b9ba 9668 8bba
000003c0: 415e 313b df05 8039 4c32 e93a 2f7b 2a3b
000003d0: 4a9c f63a f927 edb9 16d7 2f3b 859b 25bb
000003e0: 525f dcba 7fb9 26bb c994 fdba 1bf8 29bb
000003f0: 8c2a 03ba 62f6 363b 617a 093b 6e65 11ba
-0.0029611255 -0.0025191028 0.0014567345 1.2060627e-07 0.00046344235 -0.0024564725 -0.0029785375 -0.0008639605
-0.0017143576 -0.00041557464 -0.002690384 0.0025441141 0.00045926694 -0.0014313526 0.0026999405 0.00010633218
0.0025686356 -0.0013052174 -0.0028239342 -0.0027003125 -0.002673566 -0.0029192849 0.0022210297 0.00159242
-0.0018400847 -0.0019375398 -0.0018856241 0.0029017695 -0.0024760938 0.0022647073 0.0004776851 -0.0027695
-0.001857772 -0.002854059 -0.0003133261 -0.00064613135 -0.0012567542 -9.08458e-05 0.00293447 -0.0029238684
-0.0028336665 0.002170469 -0.0029309867 -0.00065576297 -0.00032381588 0.0027305363 -0.0015959241 0.0019277402
0.0024695406 0.002965015 -0.0023836805 -0.0027199462 0.000551936 -0.0028247475 0.00024213438 0.0013818981
0.0017476424 -0.0015978345 0.001441383 -0.0029126508 -0.0017615752 0.0009061804 0.0014926314 0.0027644197
0.0011879109 0.00288642 0.001620704 0.0028937412 -0.0026638107 0.0022751724 0.0013193507 0.0014753523
0.0023643684 0.001184846 -0.002689043 -0.002911981 -0.0015847611 -0.0026173622 0.0008665145 -0.0008336237
0.0017892921 0.00277224 -0.0013193227 -0.0011257394 -0.0025496236 0.002464509 0.0021009608 0.001348332
0.002149207 0.00031168203 -0.002787825 1.3206911e-05 -0.0023815962 -0.001709963 0.0014667585 3.1941396e-05
-0.0027396127 0.0011976938 -0.0016706919 0.00036553625 -0.0012764323 -0.000545051 0.0027497588 -0.0028009596
0.0022617285 0.0024460983 0.0014181717 0.0027160293 5.4507225e-05 0.0008686864 -0.0001504324 -0.002468661
0.0016676999 -0.0013193388 0.0029912014 -0.0025148718 -0.0014828092 0.0008986008 -0.002016243 -0.00068517396
0.00042990304 0.00029514398 -0.0018691448 0.0027301956 0.0026475852 -0.0026704785 0.00043906932 -0.0026395568
0.00030314794 -0.0018478895 -0.0024929047 0.0025346128 -0.0025116329 -0.001356996 0.0029639634 -0.002977421
0.0024524971 -0.0005383247 -0.0010446067 -0.0004070161 -0.0023612597 0.0022431572 0.002630466 0.0012044322
0.0028257556 0.0027006469 -0.002342947 0.002303613 -0.0025524232 -0.00012765935 -0.0011231791 -0.0007877841
-0.00022592153 -0.0027882021 -0.00024085969 0.0027510661 -0.00050198985 -0.0028346626 0.0029703672 -0.0024367515
-0.0019380371 0.0006218482 0.00031446936 -0.0022382531 0.002107788 -0.0013193248 0.00049490004 0.00253826
0.0014871026 0.000553358 -0.0025398978 0.0027068611 0.0022958936 0.0010541194 -0.00059891294 -4.7715206e-05
0.001785127 -0.0014827877 -0.0015448022 -7.7048986e-05 -0.00045449333 0.0010914454 -0.001573588 0.0026079612
-0.001634877 -0.0009936778 0.0013416986 0.001648925 -0.00047690072 7.025467e-05 -3.764982e-05 0.00046253338
-0.0023587646 -0.0020902087 0.002883573 0.0016587031 0.0026843387 0.0027580434 0.0025147137 0.0029386554
0.0026186986 -0.0027353547 -0.0021246932 0.002196425 -0.0026940475 -0.0004915628 -0.0029309804 0.002485279
0.0026942703 -0.001087018 0.002319033 0.0023979708 -0.0011544015 -0.0025696887 -0.0027726777 -0.0015517707
-0.0026711198 -0.000921233 0.0019677863 0.0027945312 -0.0017195474 -0.0029814115 -0.0008243016 -0.00046844638
0.0026684843 0.00276949 0.0017698769 0.0012130041 0.0020905545 -0.002781777 -0.0013511311 -0.0022611702
0.0011411345 4.3181528e-05 5.6047807e-05 -0.00058720843 0.0027298622 -0.0027602857 -0.0014128378 -0.0010636027
0.0027064236 0.00024418437 0.0017791479 0.0026013365 0.0018814888 -0.00045233945 0.0026831082 -0.0025269699
-0.0016813076 -0.0025440154 -0.001934671 -0.0025935236 -0.00050035934 0.0027917852 0.0020977485 -0.0005546425

network.1.running_mean f4 [256]
00000000: 0957 c151 3e83 b3d1 56ee b551 d7bb 54d1
00000010: dc52 2fd0 ba85 16d1 991d 5950 c1ee 77d0
00000020: e5c1 c151 5bc3 a351 ec47 ebd1 d423 0c50
00000030: bd90 19d1 4b42 51d1 ad7e 17d1 0592 1d51
00000040: 7e1a 94d0 67c8 714f ada8 2a51 0486 afd1
00000050: 5972 c2d0 4cf6 86d1 01cf 46cf 7d44 3851
00000060: 3a1f 72d0 deaf 3551 4c1a a7d1 d1fe f1d1
00000070: dd0a d451 aec6 4451 7661 c44f bbde 5a51
00000080: 4100 0cd0 c298 70d1 04b5 c64d 0c63 e7d0
00000090: 525a bb51 587a 27ce 59e6 6951 6d8b 88d1
000000a0: 631c d4d1 cec2 00d1 7f7d f251 167b f451
000000b0: 48f1 0ed0 b72e e151 8e6b be51 e8b8 1dd1
000000c0: 5223 7451 26e8 5e50 0756 4751 8d43 0f51
000000d0: 82e1 4bd0 32c6 b7d1 f445 d150 b1f6 f9d1
000000e0: 3363 cfd1 2d02 cd51 86f9 a9d0 0a53 d7d1
000000f0: ebc6 add1 a146 e450 3e2e 0c50 4242 c150
00000100: e714 1b51 3715 db51 0c8f de50 6089 c551
00000110: df10 69d0 45af 03d1 e5c1 f051 2d89 8dd1
00000120: 3c68 c251 c7b3 4f51 0c4a c851 f865 3851
00000130: eede 47d1 0e70 c1d1 00b5 4dd1 5f3c e751
00000140: 7b4b 06d1 2216 c651 88db bc4f 162b 8451
00000150: 2ebf e9d1 2e31 f351 14b1 4fcf 967d 9950
00000160: 5da0 8f51 c9e3 9c50 a113 b2d1 54f9 e850
00000170: c633 6851 5a35 8651 800f 4a51 38fd ca50
00000180: 818d b3d1 97ee ef51 d98b 9d51 0903 d7d1
00000190: 494c b1d1 bcf6 4651 81a8 a751 5aa7 68d1
000001a0: abcf 27d0 5b75 8151 2f96 1f51 1495 2a50
000001b0: 4f21 9151 5a83 d751 d3fc 3f51 b384 2050
000001c0: 4aa6 10d1 e3a2 ff50 7272 1751 6e9a dd51
000001d0: 3c4c 944d 7061 f451 5298 d651 8050 bad1
000001e0: ca64 62d1 610c 3a51 dd24 4850 3a57 ead1
000001f0: 813b 8e51 b95f cd51 32ca a9d1 d593 26d1
00000200: 3b28 c44f 9e01 e5d1 0103 7dd1 2ba0 5ad1
00000210: 68de 4051 67f9 d351 fa55 68d1 a4b2 e1d1
00000220: ee31 9851 1a7d f2d1 6109 acd1 1048 d7d1
00000230: 8784 8651 1336 4cd1 ff52 5051 fda9 b4d1
00000240: 4b0f 204e 21bf af51 36f5 e051 1066 ef51
00000250: 74e2 79d1 bfaa 09d1 4714 bcd1 d880 04d1
00000260: 9428 6fd1 8b97 98d0 27eb 3a50 0c68 a151
00000270: 0653 e251 c473 52d1 dcf6 57d0 bd93 d2d1
00000280: 4fb9 a9cf 3ee9 5b51 6e34 5151 7554 bbd1
00000290: e7c3 f951 424b 3651 4515 7ad1 e003 e8d1
000002a0: 8d27 24d1 a2b5 ce50 7571 c8d1 1125 a751
000002b0: f467 e7d1 892c 7b51 6326 a3d1 161d 3fd1
000002c0: 2bf8 5051 123c aacf 680a e4d1 3412 71d1
000002d0: 380f 8651 aea1 7bd1 bd78 cdd1 76b3 6ad1
000002e0: 00ae ead1 2987 f651 6b32 81d1 7f5c a6d0
000002f0: 2ed1 0951 2e15 d751 07e8 55d1 aa10 8ed1
00000300: f037 0050 e358 1fd1 a269 bcd1 9073 30d1
00000310: 8af1 0ad1 215d f351 60e0 69d1 af93 6a51
00000320: 3163 96d0 8d01 eb51 18b7 5b51 d207 4ed1
00000330: d624 58d1 6ba7 88d1 00c0 054f 3d02 7fd1
00000340: 14f8 1051 ac34 8551 4243 1750 cf54 8c51
00000350: c753 bbd0 39ef d451 c24e efd1 4795 86d0
00000360: 3ef7 3851 baee e1d1 2c75 ad51 3d2c 8fd1
00000370: 679a 1051 e7dc dc51 f228 6bd1 5371 46d1
00000380: f913 1151 b76e 8351 912d 2bd1 cca9 29d0
00000390: c2e9 c250 1fd6 12d1 2ce5 7550 265e a8d1
000003a0: 13c5 cd50 87fa bf51 e6ac 8150 4a99 1c50
000003b0: 7a57 70d1 b593 ef50 4b97 eb51 95b2 9951
000003c0: dbab ecd1 8aed d651 02c0 da51 0739 dcd1
000003d0: 83d1 31d1 3eff f2d1 f0eb 6f50 31ff e951
000003e0: d47c d8d1 b52d c04d 31fb 8350 59d1 ded0
000003f0: 91b2 7d51 6931 de50 99e8 dccf adbe 3351
1.0379861e+11 -9.637513e+10 9.767346e+10 -5.710528e+10 -1.1765772e+10 -4.040554e+10 1.4570382e+10 -1.6638477e+10
1.0402271e+11 8.791965e+10 -1.26315495e+11 9.404633e+09 -4.1222394e+10 -5.6172524e+10 -4.0666583e+10 4.229748e+10
-1.9878113e+10 4.0564426e+09 4.5810897e+10 -9.423346e+10 -2.609819e+10 -7.2457224e+10 -3.335455e+09 4.946394e+10
-1.6248531e+10 4.8771228e+10 -8.971259e+10 -1.2992028e+11 1.13839415e+11 5.282168e+10 6.589443e+09 5.875248e+10
-9.395308e+09 -6.4584688e+10 4.1671898e+08 -3.1056224e+10 1.0058428e+11 -7.0245325e+08 6.2787e+10 -7.330684e+10
-1.13876165e+11 -3.4564006e+10 1.30185945e+11 1.3125463e+11 -9.592709e+09 1.2089392e+11 1.0223103e+11 -4.2338255e+10
6.5535287e+10 1.4959024e+10 5.350886e+10 3.8457102e+10 -1.3682215e+10 -9.866302e+10 2.808818e+10 -1.3419821e+11
-1.11340315e+11 1.100631e+11 -2.2813618e+10 -1.1560139e+11 -9.329583e+10 3.0638672e+10 9.407363e+09 2.593876e+10
4.1629413e+10 1.1761922e+11 2.9871333e+10 1.0605167e+11 -1.5640788e+10 -3.534883e+10 1.29255645e+11 -7.598648e+10
1.0437155e+11 5.575465e+10 1.0752947e+11 4.9499046e+10 -5.3652414e+10 -1.0385108e+11 -5.521906e+10 1.2414379e+11
-3.60495e+10 1.0634686e+11 6.3370076e+09 7.095732e+10 -1.25491855e+11 1.3056277e+11 -3.4844887e+09 2.0601156e+10
7.710885e+10 2.105739e+10 -9.560419e+10 3.1269233e+10 6.2331314e+10 7.205259e+10 5.4240215e+10 2.724474e+10
-9.639665e+10 1.2881251e+11 8.4582015e+10 -1.1543361e+11 -9.518613e+10 5.340894e+10 9.001082e+10 -6.2452507e+10
-1.1261619e+10 6.950246e+10 4.2838716e+10 1.1447587e+10 7.7916135e+10 1.1570271e+11 5.1536278e+10 1.0772205e+10
-3.8829072e+10 3.431092e+10 4.065376e+10 1.1897233e+11 3.11003e+08 1.3120084e+11 1.1520981e+11 -1.0002681e+11
-6.07721e+10 4.9941975e+10 1.3431436e+10 -1.2581072e+11 7.636046e+10 1.1025928e+11 -9.115522e+10 -4.47153e+10
6.581942e+09 -1.2294683e+11 -6.791732e+10 -5.8686878e+10 5.1772817e+10 1.138028e+11 -6.236718e+10 -1.2117059e+11
8.170909e+10 -1.3018512e+11 -9.2361466e+10 -1.1557837e+11 7.221863e+10 -5.4817534e+10 5.5921603e+10 -9.6993255e+10
6.713392e+08 9.435324e+10 1.2077333e+11 1.2852619e+11 -6.707788e+10 -3.6954698e+10 -1.0097426e+11 -3.5568583e+10
-6.4198623e+10 -2.0480547e+10 1.2543892e+10 8.665442e+10 1.2150694e+11 -5.6492835e+10 -1.4493118e+10 -1.1305272e+11
-5.694988e+09 5.9031937e+10 5.6157987e+10 -1.0057198e+11 1.3409169e+11 4.8934167e+10 -6.7131167e+10 -1.2456218e+11
-4.4064887e+10 2.774408e+10 -1.0761212e+11 8.973518e+10 -1.2423519e+11 6.7423998e+10 -8.759046e+10 -5.130167e+10
5.6094798e+10 -5.712127e+09 -1.2242839e+11 -6.4712032e+10 7.197262e+10 -6.7546833e+10 -1.1031174e+11 -6.3002075e+10
-1.259927e+11 1.32353696e+11 -6.936208e+10 -2.2328637e+10 3.6995e+10 1.1547166e+11 -5.742005e+10 -7.627062e+10
8.604598e+09 -4.277444e+10 -1.0115326e+11 -4.7365816e+10 -3.7297365e+10 1.3065494e+11 -6.2780735e+10 6.2968754e+10
-2.0184664e+10 1.2616792e+11 5.8979353e+10 -5.5305904e+10 -5.8020684e+10 -7.3365545e+10 2.2439526e+09 -6.845339e+10
3.8914834e+10 7.151429e+10 1.015107e+10 7.5339784e+10 -2.5142639e+10 1.1431832e+11 -1.28477315e+11 -1.806344e+10
4.9651376e+10 -1.212966e+11 9.3124395e+10 -7.6865315e+10 3.881661e+10 1.1857487e+11 -6.3125266e+10 -5.326905e+10
3.8944084e+10 7.0562275e+10 -4.5950243e+10 -1.1385909e+10 2.6160796e+10 -3.94161e+10 1.6501748e+10 -9.039176e+10
2.7617958e+10 1.0306774e+11 1.7404735e+10 1.0509167e+10 -6.4516235e+10 3.2155478e+10 1.2648195e+11 8.251576e+10
-1.2706194e+11 1.1538853e+11 1.1744053e+11 -1.18231196e+11 -4.7732765e+10 -1.3045804e+11 1.6100868e+10 1.256261e+11
-1.162259e+11 4.0302762e+08 1.771422e+10 -2.9906094e+10 6.810141e+10 2.982224e+10 -7.412462e+09 4.8249885e+10

network.1.running_var f4 [256]
00000000: 83d6 2566 07f0 0e66 21e9 1266 06ee 4865
00000010: 68a0 0963 67c6 c864 ac08 5063 68d4 8763
00000020: 946f 2666 9dd0 ed65 3891 7566 6223 af62
00000030: 45ff d064 c851 4265 f8c5 cb64 6fc7 dc64
00000040: 64e5 c163 fc8a 8161 821e 0165 2bb0 0866
00000050: 474d 2764 cf9a a165 2e66 3861 fbde 1665
00000060: 905f 8163 d939 1265 06cb f765 8be4 8166
00000070: 4e66 4766 49c8 2b65 2cde 2d62 893d 5465
00000080: 28d2 ac62 e073 8065 30d7 8f5e a204 6d64
00000090: ce9c 1b66 0ef2 075f 86bb 7265 7f7b a565
000000a0: 2896 4766 b0d1 9264 1573 8266 8a93 8466
000000b0: 9573 b562 efe1 6066 7fd5 2066 1b86 dc64
000000c0: e618 8465 4921 5c63 23a1 3065 2c65 b664
000000d0: 9391 3763 bad7 1566 f4fd 4264 1097 8a66
000000e0: 18d3 3e66 db79 3a66 de8a 0064 84aa 4d66
000000f0: 85fc 0566 3805 6864 2a12 b162 f972 2664
00000100: bb54 d564 6bdc 5466 c63c 5b64 7e1b 2d66
00000110: a495 7263 6c99 9964 899c 8066 2cc1 b165
00000120: 9cb0 2766 c180 3f65 4cf2 3166 402c 1765
00000130: a342 3165 6803 2666 65c1 3b65 d937 6d66
00000140: c069 a064 0522 2e66 f58e 2162 d9dc 9a65
00000150: 0365 7266 532e 8366 c3ed 4861 cfcc d063
00000160: 2acb b665 6443 db63 82b3 0c66 503a 7164
00000170: 7f98 6f65 8dd3 9f65 5a2f 3565 bf5e 3664
00000180: c705 0f66 4c66 7f66 e662 dc65 ea19 4d66
00000190: 4772 0b66 6de1 2f65 f73f f965 0f0b 7065
000001a0: 99a0 fc62 3bb8 9465 a643 e264 cf4a 0063
000001b0: 6dc1 ba65 7a07 4e66 0059 2365 c559 e762
000001c0: 586c b964 8f81 9064 57c7 cb64 8ce8 5966
000001d0: 4ff4 065e 0071 8466 d03d 4c66 1805 1a66
000001e0: e078 6365 4282 1965 665c 3163 7d9d 7366
000001f0: 7685 b365 4330 3b66 0fbe ff65 3070 f664
00000200: 957e 2a62 d8a6 6866 d4f3 8d65 4507 5465
00000210: f8e6 2465 9e59 4766 e972 6f65 d3f4 6166
00000220: 0a92 cd65 c36c 8266 884f 0366 97a1 4d66
00000230: 1082 a065 5412 3965 2e82 4065 15c3 1066
00000240: 9dc8 2a5f ff14 0966 d371 6066 4153 7e66
00000250: 6e80 8a65 2520 a864 8de0 1c66 47a1 9b64
00000260: 4fe7 7d65 8fc5 cd63 3190 1963 562d e765
00000270: ad36 6366 6142 4465 bda9 4d63 beb7 4466
00000280: 253b fc61 e677 5665 80f6 4165 9aa5 1b66
00000290: 5564 8a66 8846 1365 dad0 8a65 8fd5 6e66
000002a0: 1376 ef64 833b 3e64 2f39 3266 76db f765
000002b0: 6989 6d66 97d2 8b65 0530 ec65 9721 2265
000002c0: 9ca3 4165 3a54 ff61 25ab 6666 2deb 8065
000002d0: a97a 9f65 2977 8c65 d654 3b66 c064 7465
000002e0: 494e 7466 a8d6 8666 b832 9465 0dc7 f463
000002f0: 1486 a864 d03f 4d66 e60f 4b65 adf9 b265
00000300: 7bc5 9062 3de4 e064 9076 1d66 0335 0a65
00000310: 3453 ab64 f45d 8366 b5aa 7265 765c 7465
00000320: 4816 c963 6dfd 7466 4d0b 5665 8352 3c65
00000330: 3325 4f65 fea4 a565 ac3b 9b60 f94d 9065
00000340: 2fe0 b964 525b 9d65 ea87 c862 bacc ae65
00000350: 9755 1b64 942c 4966 8714 7e66 a00d a063
00000360: fbaf 1765 3570 6266 6f82 0566 fbd8 b565
00000370: 29af b964 9772 5866 0144 7565 d7a2 2e65
00000380: 4927 bb64 c24f 9965 7b02 0265 d4d2 fc62
00000390: af3b 2964 2f57 bf64 ad96 8663 6384 fb65
000003a0: 7d31 3c64 9b6d 2366 f0ef 9363 805f db62
000003b0: 4220 8065 e1b8 7e64 8e19 7666 c9bf d165
000003c0: 8a86 7866 5905 4d66 1b56 5466 792b 5766
000003d0: 991b 0c65 32f9 8266 3d80 8063 9dfb 7266
000003e0: 39ec 4f66 2be7 6c5e 7466 9b63 088a 5b64
000003f0: 4fb8 8e65 842c 5a64 7c8d 5662 df8d 0f65
1.9578688e+23 1.6875094e+23 1.734415e+23 5.9304003e+22 2.5387624e+21 2.9629162e+22 3.8375476e+21 5.011232e+21
1.9649277e+23 1.4038114e+23 2.8991465e+23 1.6153649e+21 3.0842535e+22 5.735298e+22 3.0071634e+22 3.2581235e+22
7.153502e+21 2.987056e+20 3.8109253e+22 1.613729e+23 1.2344699e+22 9.539459e+22 2.1259773e+20 4.4529265e+22
4.773032e+21 4.315829e+22 1.46271205e+23 3.0670057e+23 2.3540953e+23 5.0701205e+22 8.01824e+20 6.26423e+22
1.5939917e+21 7.582505e+22 5.182403e+18 1.7488849e+22 1.8371484e+23 9.795908e+18 7.1641993e+22 9.768357e+22
2.356302e+23 2.1666674e+22 3.0801527e+23 3.13037e+23 1.6735946e+21 2.6549446e+23 1.8987924e+23 3.2543576e+22
7.797646e+22 4.0606821e+21 5.213181e+22 2.691678e+22 3.386244e+21 1.7690301e+23 1.438787e+22 3.272366e+23
2.252859e+23 2.20152e+23 9.484759e+21 2.4280765e+23 1.5818323e+23 1.7120083e+22 1.6331913e+21 1.2281777e+22
3.1482096e+22 2.5130192e+23 1.6176865e+22 2.0436914e+23 4.4748948e+21 2.2667256e+22 3.0367524e+23 1.0492778e+23
1.9797327e+23 5.6521693e+22 2.1008211e+23 4.461835e+22 5.2318006e+22 1.9599392e+23 5.5415627e+22 2.8005777e+23
2.3672793e+22 2.0557983e+23 7.450567e+20 9.1414795e+22 2.86169e+23 3.0974227e+23 2.3165508e+20 7.7033616e+21
1.079023e+23 8.089386e+21 1.6611066e+23 1.7799469e+22 7.0716165e+22 9.434484e+22 5.3476363e+22 1.3456538e+22
1.6885125e+23 3.0152262e+23 1.3009312e+23 2.4214079e+23 1.6462925e+23 5.191078e+22 1.4713115e+23 7.0848247e+22
2.3300759e+21 8.778859e+22 3.339071e+22 2.3665738e+21 1.1024103e+23 2.4323635e+23 4.821172e+22 2.1338332e+21
2.7363637e+22 2.1325335e+22 3.0072424e+22 2.5726081e+23 2.431121e+18 3.1271843e+23 2.4112575e+23 1.818346e+23
6.7137934e+22 4.5307807e+22 3.2717317e+21 2.8761005e+23 1.0597069e+23 2.209932e+23 1.5096368e+23 3.6367864e+22
7.862669e+20 2.7466669e+23 8.379394e+22 6.2579737e+22 4.8670545e+22 2.3535102e+23 7.067283e+22 2.6676217e+23
1.2134738e+23 3.0795697e+23 1.5502428e+23 2.4276648e+23 9.474723e+22 5.4623493e+22 5.6818485e+22 1.7090485e+23
1.2306259e+19 1.6183788e+23 2.6497744e+23 3.0025421e+23 8.175696e+22 2.4810954e+22 1.8520785e+23 2.2966933e+22
7.49391e+22 7.591636e+21 2.832742e+21 1.3646287e+23 2.6824645e+23 5.792552e+22 3.7938135e+21 2.3224332e+23
5.8160516e+20 6.3299885e+22 5.724774e+22 1.837554e+23 3.267687e+23 4.346806e+22 8.19424e+22 2.8196567e+23
3.533824e+22 1.4036679e+22 2.1040902e+23 1.4630911e+23 2.804339e+23 8.2536705e+22 1.3942054e+23 4.7852687e+22
5.7152174e+22 5.887486e+20 2.7232534e+23 7.610014e+22 9.413987e+22 8.291618e+22 2.2116187e+23 7.2132246e+22
2.8842538e+23 3.183784e+23 8.748073e+22 9.0306973e+21 2.4869715e+22 2.4231557e+23 5.9933354e+22 1.0564837e+23
1.3352806e+21 3.3188136e+22 1.8589966e+23 4.079153e+22 2.528311e+22 3.1018157e+23 7.1622605e+22 7.212269e+22
7.418802e+21 2.8923308e+23 6.317468e+22 5.5582936e+22 6.1138504e+22 9.7779255e+22 8.948579e+19 8.518239e+22
2.7430414e+22 9.288701e+22 1.8495712e+21 1.0318354e+23 1.1461651e+22 2.375045e+23 2.9996494e+23 5.9049217e+21
4.4770225e+22 2.6733117e+23 1.576202e+23 1.07343865e+23 2.7402154e+22 2.5553624e+23 7.238964e+22 5.1543477e+22
2.7618975e+22 9.049917e+22 3.8372087e+22 2.3318856e+21 1.2487202e+22 2.8236883e+22 4.965442e+21 1.4846951e+23
1.3886216e+22 1.929419e+23 5.4579214e+21 2.0233592e+21 7.5632245e+22 1.879518e+22 2.9054339e+23 1.2381405e+23
2.9340717e+23 2.4204594e+23 2.5068251e+23 2.5402768e+23 4.1352525e+22 3.0925224e+23 4.7408476e+21 2.8686353e+23
2.4547185e+23 4.267665e+18 5.7332557e+21 1.6199133e+22 8.424699e+22 1.6098392e+22 9.8944956e+20 4.2369717e+22

network.4.weight f4 [128, 256]
00000000: 53f4 a73c d076 13bb 4f25 2f3d 6d3d 3f3b
00000010: d401 123d 3ab2 12bd 7c79 33bd 13df 2d3c
00000020: 852e 46bc c742 debc 1951 5ebc a3c6 9ebb
00000030: 1210 233d f046 1cbd 2368 5e3a 418d 55bd
00000040: 4458 42bd e2d2 ee3c c41e dabb 2039 4dbd
00000050: 5891 553d 0178 3d3d 737c 743c aa80 803c
00000060: a6bb 2a3d 2cc5 f2bb be17 58bb c4e5 423d
00000070: d18e 043d e69b bb3c 1c57 b93c 410a 56bd
00000080: f81e 573c c861 ee3c 226d 013c 1712 6c3d
00000090: 6163 80bb 4c9d 033d 2d7c e8bc 8d0b 59bd
000000a0: 5d60 973c f6a6 e6bc bfea 733d 5e2d bd3c
000000b0: f796 c4bc 9c59 fc3b eec0 313d 18ab 2ebd
000000c0: 79e2 d33c 0575 5ebc 167f 73bd 6230 c5bc
000000d0: 958a 7e3d 3344 53bd 802d 2e3d 878a 843c
000000e0: 1f8c 77bc 17b2 43bd c8e9 69bd 9e61 66bd
000000f0: 72c6 e5bb 5c8d 093d 6603 6f3b 18cc a83c
00000100: 988f 2fbc 3eca 33bd dccf b13b ac61 9d3c
00000110: 53e9 383d 3dbf 973c 62bd 9a3c a426 313c
00000120: 3893 2a3d b72e 5abd 4943 3f3c 806a 70bc
00000130: 8003 95bc 6842 b7bc c556 313d 44fc 483d
00000140: e00a 623d 1300 4e3d c217 f13c 383c 6cbd
00000150: 5c15 18bc b97e a43c b377 633c 1ed5 f53c
00000160: e9fc 593d f540 c7bc 050c 06bd 34a1 40bd
00000170: c482 16bd 69ed 773d 8065 1abc 46e7 4dbd
00000180: fde3 2bbd 41a0 653b 4b5b 15bd 4d94 bd3c
00000190: ee0b 01bd 475d 063d 3b37 28bd 66ca 2cba
000001a0: 9747 613d c337 44bd d843 c0b8 c9ae 5ebd
000001b0: 9d69 68bc 9a95 373d 3d06 33bd bb75 8dbc
000001c0: 80b5 213d d160 103d eaa2 6dbd f21a 9b3c
000001d0: 4e1d 34bd cfd2 3abc 2ff8 d3bc a902 e1bc
000001e0: aed9 f2bb 059f 75bd f1ba ec3c d4d3 b9bc
000001f0: 0392 02bb b1eb b93c 7aec 5fbd b096 fa3c
00000200: c8f3 85bc e66b 34bd 7a2a bfbc fe79 dc3c
00000210: 2a56 df3c 90f1 653d 9fb6 2bbd beba 113d
00000220: 8ae1 8dbc fbb1 e03c 224b 67bd 13e3 9abc
00000230: 6292 cbbb f982 523d 05ee f53c c595 42bc
00000240: d0f0 afbb 099f 1d3d 35a1 cbbc 6467 153c
00000250: 43f1 e23c 830b dcbc 1fd6 b43c cbb1 b0bc
00000260: 8c4b 09bd 379a 61bc a210 59bd 1b6e 2f3d
00000270: f4ab 74bd 5239 14bd b029 2b3d 439f 2abd
00000280: a43e 71bd ea73 e53c f3cf 73bd d9db 863c
00000290: c69f 28bc 2ef7 65bb 7a29 013d b888 af3c
000002a0: dffe 46bd d7e0 213d 38ac 013d b443 2fbd
000002b0: e262 33bd a205 04bd a917 efbc 6c53 da3a
000002c0: 02cf 023d cf60 313d 40dc dfbc 9c0c 1ebd
000002d0: e7cc 11bd 247e 0cbd ffee 633d 2548 dcbc
000002e0: 5263 61bd fc5f 55bd a60c 5a3d 46ef 393c
000002f0: 1210 12bd d33f febc 3fc3 72bd 9aee fe3c
00000300: 0cec 393d fcc1 59bc f8fa 9c3c 1170 6fbd
00000310: b5c2 2f3d 3804 47bd bd52 53bd 935f 3cbd
00000320: 2597 2bbd 43a8 25bd 2f84 7c3c 3463 173c
00000330: 1e3b 293d 11c7 97bc f908 3f3d 7ceb 20bd
00000340: ee88 3e3b 0c7f 0cbc 1ee0 7a3d a4fa 72bd
00000350: 9064 47bd dbd9 1ebd 7fd0 73bd 04bf 4b3d
00000360: 84e0 df3c e791 4ebd d262 5c3d ffc5 52bd
00000370: aee6 153d cc7d 1c3b 5f2c d2bc 7a2a adbb
00000380: c535 223c 6f1c 333d fe8c dcbc e543 42bd
00000390: 3189 2d3d 4156 fb3c 95fd 1fbd f69b 1bbd
000003a0: c44a 0a3d 8cc5 203c 174a c63c 1352 93bc
000003b0: ae35 343d 6e28 8a3c 940d 55bc 0d8a 6cbd
000003c0: 10ac cb3c f061 fc3c 05e5 cb3c d159 d73b
000003d0: 87a2 b7bc 6de4 803d b5e6 3cbc 4198 2ebd
000003e0: 1cba c53c 92be 33bd 035c 90bc 074a 073c
000003f0: ce02 febb eda3 413d e045 15bd 3a16 733d
0.020502245 -0.0022501238 0.04276019 0.00291809 0.035646275 -0.0358145 -0.04381703 0.010612267
-0.012096052 -0.027131451 -0.01356914 -0.0048454567 0.039810248 -0.03815359 0.00084841455 -0.052136663
-0.047447458 0.029153291 -0.0066564996 -0.050103307 0.052140564 0.046257023 0.014922249 0.015686352
0.04168286 -0.0074087586 -0.0032973136 0.047582403 0.032362763 0.022901487 0.022624545 -0.052255873
0.013129942 0.02909936 0.007899554 0.05763444 -0.003918097 0.032132432 -0.028379524 -0.05298953
0.018478567 -0.028155785 0.059550043 0.023092922 -0.023997767 0.007701112 0.043396883 -0.042643636
0.025864827 -0.013577704 -0.05944737 -0.024070922 0.06214388 -0.05157871 0.04252386 0.016179336
-0.015109091 -0.04777726 -0.057107717 -0.05624544 -0.007012182 0.033582076 0.0036470531 0.020605132
-0.010715388 -0.043894045 0.00542639 0.019211613 0.04514439 0.018523807 0.018889133 0.010812435
0.041644305 -0.053267207 0.011673757 -0.014673829 -0.018190145 -0.022370532 0.04329564 0.049068704
0.055186152 0.05029304 0.029430274 -0.057674617 -0.009282436 0.020079957 0.013883519 0.030008849
0.05321971 -0.024322966 -0.032726306 -0.047028735 -0.0367458 0.060529146 -0.009423614 -0.050269388
-0.041965473 0.0035038146 -0.036464017 0.023142004 -0.031505518 0.0328038 -0.041068297 -0.0006591439
0.054999914 -0.04790474 -9.16791e-05 -0.054365907 -0.014185336 0.044820406 -0.04370712 -0.017268052
0.039479733 0.03524858 -0.058016695 0.018933747 -0.04397326 -0.0114028 -0.02587518 -0.027467089
-0.0074112033 -0.059966106 0.028897734 -0.022684015 -0.0019923456 0.022695394 -0.05466888 0.030589432
-0.016351596 -0.044048212 -0.023335684 0.02691364 0.027262766 0.056138575 -0.041922208 0.03557848
-0.01731946 0.027428618 -0.056468137 -0.018907106 -0.0062125186 0.051394437 0.030020723 -0.011876528
-0.0053692833 0.038481746 -0.024857143 0.0091188885 0.027702933 -0.026860958 0.022074757 -0.021569153
-0.033519313 -0.013769678 -0.052994378 0.042829614 -0.0597343 -0.036187477 0.041787803 -0.04165579
-0.05889763 0.028009374 -0.059524488 0.016462253 -0.010291999 -0.0035089958 0.031533696 0.021427497
-0.048582908 0.039521065 0.03165838 -0.042789176 -0.043795474 -0.032231934 -0.029186087 0.0016656942
0.0319357 0.043305214 -0.027326703 -0.038586244 -0.0355958 -0.034299985 0.055647846 -0.02688987
-0.05502636 -0.05209349 0.05323472 0.011348551 -0.035659857 -0.031036293 -0.059268232 0.031119633
0.045391127 -0.013290878 0.01916264 -0.058456484 0.042910296 -0.048588008 -0.051592577 -0.045989584
-0.04189219 -0.04044367 0.015412374 0.00923996 0.041316144 -0.01852754 0.046639416 -0.039287075
0.0029073316 -0.008575212 0.06124889 -0.05932106 -0.04867989 -0.038781982 -0.05952501 0.049742714
0.027328737 -0.050432112 0.05380518 -0.051458355 0.036596946 0.0023878692 -0.025655923 -0.0052846046
0.009900515 0.04372829 -0.026922699 -0.04742803 0.042367164 0.030680778 -0.039060194 -0.037990533
0.03376271 0.009812724 0.02420525 -0.017983472 0.043996505 0.016864982 -0.013003726 -0.057748843
0.02486232 0.030808419 0.024889478 0.0065719862 -0.022416366 0.06293569 -0.011529614 -0.04262567
0.024136595 -0.043882914 -0.017622 0.008257396 -0.007751799 0.047275472 -0.03644359 0.05934737

network.4.bias f4 [128]
00000000: 28c1 50bc 95f3 5ebd 4134 76ba f1d8 10bd
00000010: 3957 9e3c b9f7 6a3c 8a74 44bd 0b02 093d
00000020: 651f 4dbd 6312 3abd f63e 743d 0804 073c
00000030: 942f 3e3d 3d13 a5bb 5f04 dabb df41 75bb
00000040: e30a 96bc 82bb 1d3c 7423 0cbb e0b5 5f3d
00000050: 409a e43c a3c3 73bd b6e1 02bd 4713 60bd
00000060: fc83 373d 1ca1 0b3d 0b34 603b a337 a63c
00000070: 9835 40bd 466c 06bd b5f4 4cbd e4e1 68bd
00000080: 54d8 94bc 85a4 213d e1be 923c 038f 0bbd
00000090: f23b 0f3c bbe8 4fbb 3df9 79bd 6a4a 1d3b
000000a0: 007e 873c e0a9 90bc b55f b03c 06a5 6b3d
000000b0: c5c7 bf3c 7e1f de3c b74f e93b 755c 30bd
000000c0: a060 1cbd 6f09 61bd e018 443d b083 f8ba
000000d0: c793 26bd 7173 793d 2562 adbc 880e fdbb
000000e0: 9988 d7bb 6ec8 303c 4826 5b3d 5147 ce3b
000000f0: 93be fabc 826e 23bd bf07 09bd 592b 5bbd
00000100: bb1f 66bd d114 e7ba 8553 703d 414f 773c
00000110: 4354 723d 64a1 f23c b6ea 603d 5672 083d
00000120: a5fb 043d e041 9c3c f475 b03b dd58 be3b
00000130: d68b acbc d11d 913b f606 6c3d 9a85 d8bc
00000140: 6d50 7ebc 1924 003d b82a 32bd 96ae 773d
00000150: 1478 64bc c902 c43b 0935 013d b793 78bc
00000160: b3b8 fe3c 6647 013d b9d0 20bd 4c58 29bd
00000170: 6a74 d7bc b4b6 fcbc 63b0 39bd 4dc5 cebc
00000180: 2b2d 2f3d 460b 1dbc 77b6 56bd 34ac 1a3d
00000190: e25f 4fbd 6ee0 7e3d 4e3f 7e3d 0571 613d
000001a0: 815b b7bc 0c89 ea3b 7c0e 023d 97a6 92bc
000001b0: 399b 1bbd dff7 a2bb 67b8 7b3d e060 3a3c
000001c0: 5b39 a9bc 2c13 7dbd c5a6 1dbb dfff 06bd
000001d0: 04ed 1fbd 07b4 3e3d fab3 723d a3e0 62bd
000001e0: 880e 463d a3d1 69ba d018 c2bc e598 12bd
000001f0: da50 013d 8472 e7bc 707b 66bb 96ef 6cba
-0.012741365 -0.054431517 -0.0009391942 -0.03536314 0.0193287 0.014341288 -0.047962703 0.033449214
-0.05007877 -0.04542769 0.059630357 0.008240707 0.046432093 -0.005037694 -0.006653353 -0.0037423295
-0.018315738 0.009627225 -0.0021383436 0.05461681 0.027905583 -0.059512746 -0.031953536 -0.054705884
0.044803604 0.034089193 0.0034210708 0.020290202 -0.04692611 -0.0328181 -0.05003806 -0.05685605
-0.01816956 0.03946354 0.017913284 -0.034071933 0.008742319 -0.0031724412 -0.061028708 0.0024000653
0.016539574 -0.017659128 0.021530012 0.057530425 0.023410687 0.027114626 0.0071200985 -0.043056924
-0.038178086 -0.054940637 0.047875285 -0.0018960144 -0.040668275 0.06090111 -0.021164963 -0.0077226795
-0.006577563 0.010789974 0.053503305 0.0062951227 -0.030608451 -0.03990031 -0.033454653 -0.053508136
-0.056182604 -0.0017630105 0.0586734 0.015094579 0.05916239 0.029617973 0.054911338 0.033312164
0.03246655 0.01907438 0.005385155 0.005808933 -0.021062773 0.004428603 0.057623826 -0.026430894
-0.015522105 0.031284425 -0.04349777 0.060469232 -0.0139446445 0.0059817773 0.03154472 -0.015171937
0.03109393 0.03156223 -0.039261553 -0.041343972 -0.026300628 -0.030848838 -0.04533423 -0.025240565
0.042767685 -0.009585207 -0.052420106 0.037761882 -0.05062855 0.06222575 0.06207209 0.055039424
-0.0223825 0.0071574505 0.031752095 -0.017901702 -0.03798983 -0.004973396 0.061455157 0.011375636
-0.020657232 -0.06178586 -0.0024055701 -0.03295886 -0.039044395 0.046558406 0.05925367 -0.05539001
0.0483537 -0.0008919483 -0.023693472 -0.035790343 0.031571247 -0.028252847 -0.003516879 -0.00090383866
